data/Results/kinships_sequential-processing/corrupt/distmult_10.model (torch, 54128 bytes, 1 tensors)

entity_representations.0._embeddings.weight f4 [104, 100]
0.32056823 -0.115945585 0.15372084 -0.10507488 0.0032999683 0.0036147991 4.1374475e-05 0.003217101
-0.007879005 0.010803087 0.00026864832 -0.0011680581 1.650999e-05 0.12234436 -7.705463e-05 0.13412336
-0.098296404 3.591362e-05 0.08989659 -0.071395114 0.106107906 -0.18110459 0.09618146 -6.635438e-06
0.0023154726 -0.023525104 0.11620257 0.16826887 0.00012611525 0.06575272 0.0004993587 -0.14259723
0.011693169 0.0708209 -0.16159569 0.0029881767 -0.23712246 0.0747877 0.077964686 -0.08429442
-0.17549407 0.0033583746 0.001511122 -0.1191809 0.15171854 0.14484343 0.15732448 -0.020703059
0.13690554 -0.00075860636 0.050115682 0.0031545449 -0.035432503 0.110140555 -0.0011942405 0.36260143
0.00019360181 8.5278756e-05 0.0011416646 -3.9692814e-06 0.0009883479 -0.04203744 0.09626213 4.5144097e-06
-0.1352216 6.75922e-05 0.12070701 -0.086186066 -0.03449335 -0.06686216 -0.09222507 -0.17692913
-0.00072888075 1.6472841e-06 -0.107638344 3.4440804e-05 0.14698988 -0.000804298 -0.12267009 0.099412136
-0.13391784 0.0021674808 -0.07190266 -0.00021276862 -0.083999954 -0.09141385 0.08627014 -6.462879e-06
0.11826362 -0.0017348662 0.00025247395 0.15132506 -0.008095311 0.0032642335 0.0058737523 -0.19207236
-0.013348437 0.0003212067 -0.1058854 -0.0020213886 -0.08057173 -0.13117445 0.15469655 -0.104213044
-0.008156259 0.0043362416 6.824824e-05 -0.007067038 -0.040164042 0.027404763 0.00075145665 -0.0018087779
3.3480042e-05 0.1439444 -0.00042625843 0.13532066 -0.10913057 0.011380868 0.08890208 -0.07542854
0.10573098 -0.16315846 0.09098368 -2.0293772e-05 1.918322e-05 -0.015488776 0.11809424 0.1383086
0.0002361975 0.03344313 0.0010640551 0.1895355 0.044035647 0.06740416 -0.16215949 0.018063791
-0.18512098 0.10398263 0.09967736 0.2258505 -0.09337828 0.0070720618 0.0020697087 -0.13044661
0.13897534 -0.14425994 0.15012982 0.1582554 0.13576898 -0.0010663653 0.112895004 0.0058883624
-0.05440393 -0.031342153 -0.002019276 0.41686672 0.00034210208 0.00023360387 0.000701896 -6.908527e-06
0.0014103537 0.24496163 0.116664514 0.00077092735 0.010787971 0.0002535541 0.14420052 0.07842461
-0.048179504 0.02437332 -0.106480524 -0.04088305 -0.0020655242 9.001508e-06 -0.106611215 5.120378e-05
-0.10303485 0.00033067542 -0.12310356 0.123995796 -0.13108352 0.003426976 -0.07937272 -0.00019671065
-0.11247654 -0.059972655 0.12095766 -4.0548235e-05 -0.13020371 -0.002658615 0.00033950835 0.12577261
-0.011416605 0.006091326 0.008195363 -0.12338059 0.10804888 0.0004202283 -0.11368249 -0.0029862635
0.2730501 -0.16415858 0.14278872 -0.09279089 0.0027422272 0.003782112 6.2440966e-05 0.015223498
0.047405817 0.028032212 0.0004795096 -0.0016227594 2.989601e-05 0.18437879 -0.0001338777 0.13489377
-0.09363337 0.0029249894 0.08330039 -0.065190375 0.09559288 -0.080318876 0.09104116 -1.2731655e-05
-0.022322487 -0.08129619 0.112755105 -0.121033534 0.00019315543 -0.10122803 -0.0004962049 -0.018451246
-0.013806574 0.06460666 -0.15018225 -0.015691124 -0.083837084 -0.05505158 0.081895575 -0.11293996
-0.16903132 0.004678207 0.0013305137 -0.1476442 0.16035701 0.10039278 0.15458119 -0.1509028
0.14206296 -0.010720037 -0.17682467 0.0045391796 -0.046180494 0.08873896 -0.0019885853 -0.098957136
00000000: 8521 a43e e174 edbd ff68 1d3e 8031 d7bd
00000010: 4844 583b 44e6 6c3b 8189 2d38 00d6 523b
00000020: f116 01bc 6eff 303c 5ed9 8c39 8719 99ba
00000030: ef7e 8a37 ae8f fa3d 6498 a1b8 a257 093e
00000040: a04f c9bd f5a1 1638 b41b b83d 9a37 92bd
00000050: 1a4f d93d 7b73 39be c9fa c43d faa5 deb6
00000060: 2fbf 173b b8b7 c0bc 9dfb ed3d ad4e 2c3e
00000070: ce3d 0439 5da9 863d 65e7 023a 0205 12be
00000080: b594 3f3c 8c0a 913d 5779 25be 49d5 433b
00000090: 3bd0 72be 4b2a 993d f3ab 9f3d 8ea2 acbd
000000a0: b8b4 33be 2d18 5c3b d710 c63a 1e15 f4bd
000000b0: 1b5c 1b3e d651 143e ab19 213e 7699 a9bc
000000c0: f730 0c3e 36dd 46ba 1a46 4d3d 7bbc 4e3b
000000d0: ac21 11bd 5f91 e13d 1088 9cba e5a6 b93e
000000e0: 9701 4b39 afd7 b238 e8a3 953a de2f 85b6
000000f0: 748b 813a 732f 2cbd 1425 c53d 7c7a 9736
00000100: 8877 0abe 49c0 8d38 3d35 f73d 5282 b0bd
00000110: e648 0dbd 07ef 88bd 7fe0 bcbd e92c 35be
00000120: 5c12 3fba 4018 dd35 7e71 dcbd 8874 1038
00000130: 8484 163e 86d7 52ba 753a fbbd 9798 cb3d
00000140: c221 09be 4b0c 0e3b b441 93bd a41a 5fb9
00000150: 2b08 acbd 2f37 bbbd 66ae b03d b5db d8b6
00000160: 3234 f23d 7364 e3ba 7b5e 8439 f5f4 1a3e
00000170: 32a2 04bc c0ec 553b 9b78 c03b 9eae 44be
00000180: 67b3 5abc a267 a839 72da d8bd 4679 04bb
00000190: cb02 a5bd 9852 06be c668 1e3e a66d d5bd
000001a0: d4a1 05bc 0817 8e3b 7f20 8f38 9d92 e7bb
000001b0: 0d83 24bd f47f e03c 67fd 443a 8414 edba
000001c0: ec6c 0c38 2966 133e 707b dfb9 8091 0a3e
000001d0: d97f dfbd d276 3a3c 4b12 b63d 477a 9abd
000001e0: 7c89 d83d 0313 27be a755 ba3d 8b3c aab7
000001f0: a7eb a037 a3c4 7dbc 65db f13d c5a0 0d3e
00000200: c9ab 7739 aafb 083d c477 8b3a 9815 423e
00000210: b95e 343d 310b 8a3d 230d 26be 84fa 933c
00000220: 5b90 3dbe d8f4 d43d a523 cc3d 5a45 673e
00000230: 1d3d bfbd c1bc e73b f3a3 073b cc93 05be
00000240: 8d4f 0e3e e1b8 13be a2bb 193e b40d 223e
00000250: 0607 0b3e 48c5 8bba 7f35 e73d 2af3 c03b
00000260: a8d6 5ebd a160 00bd d455 04bb 8e6f d53e
00000270: 2a5c b339 90f3 7439 71ff 373a cccf e7b6
00000280: 9edb b83a 39d7 7a3e ceed ee3d 0f18 4a3a
00000290: 08c0 303c 75ef 8439 4da9 133e 159d a03d
000002a0: df57 45bd 8faa c73c 7612 dabd fc74 27bd
000002b0: bf5d 07bb 2f05 1737 fb56 dabd a4c3 5638
000002c0: ef03 d3bd 815e ad39 b81d fcbd 82f1 fd3d
000002d0: c23a 06be 1e97 603b 2a8e a2bd 1d44 4eb9
000002e0: 1a5a e6bd e3a5 75bd a6b8 f73d 5612 2ab8
000002f0: 1f54 05be 283c 2ebb 0a00 b239 89ca 003e
00000300: b60c 3bbc bf99 c73b d845 063c f6ae fcbd
00000310: bb48 dd3d 1652 dc39 5ed2 e8bd 30b5 43bb
00000320: 39cd 8b3e 3019 28be 3537 123e 2609 bebd
00000330: f0b6 333b 4fdd 773b bdf2 8238 fb6b 793c
00000340: 9a2c 423d cfa3 e53c b066 fb39 c5b2 d4ba
00000350: 31c9 fa37 cbcd 3c3e 8561 0cb9 9821 0a3e
00000360: dac2 bfbd 2eb1 3f3b 6599 aa3d 8882 85bd
00000370: 33c6 c33d 397e a4bd ca73 ba3d 0b9a 55b7
00000380: a6dd b6bc 9e7e a6bd 26ec e63d 6ee0 f7bd
00000390: c489 4a39 a450 cfbd bf13 02ba 1127 97bc
000003a0: f834 62bc 7f50 843d 60c9 19be ac8a 80bc
000003b0: c7b2 abbd c47d 61bd deb8 a73d 114d e7bd
000003c0: 8c16 2dbe a54b 993b a264 ae3a 0b30 17be
000003d0: a134 243e bb9a cd3d 884a 1e3e 4386 1abe
000003e0: f478 113e 18a3 2fbc 8711 35be 66bd 943b
000003f0: c227 3dbd c6bc b53d ed52 02bb 0aaa cabd
