data/Results/kinships_sequential-processing/corrupt copy/distmult_1.model (torch, 54120 bytes, 1 tensors)

entity_representations.0._embeddings.weight f4 [104, 100]
0	0x3dc08e14	0.09402099
1	0xbe24a610	-0.16078973
2	0x3d60128b	0.054705184
3	0xbdc6477f	-0.096816055
4	0xbd8f53bc	-0.06998393
5	0x3dd64f7d	0.1046438
6	0x3acd7f59	0.0015678211
7	0xbe347032	-0.17620924
8	0x3deaee4b	0.11471232
9	0xbe0b985f	-0.13632344
10	0x3bd08936	0.006364013
11	0xbce711dc	-0.028206758
12	0x3c93a66a	0.018023688
13	0x3dd9cc5e	0.10634683
14	0x3a9bee2c	0.0011896542
15	0x3de88819	0.113540836
16	0xbddf3c36	-0.10900156
17	0xbdc3aeb1	-0.09554804
18	0x3e1149b5	0.14188273
19	0xbe37fb81	-0.17967035
20	0x3dc49273	0.095982455
21	0xbe2f5223	-0.17121176
22	0xbe49e39e	-0.19715735
23	0xbbd3558b	-0.0064494065
24	0x3b92a47a	0.0044751735
25	0x3a41c78b	0.00073921
26	0x3ce760bf	0.028244374
27	0x3e3b97e7	0.18319665
28	0x3b3918d5	0.002824356
29	0xbcb9fe7e	-0.02270436
30	0x380b9dc2	3.3287106e-05
31	0xbdf2ab25	-0.118490495
32	0x3c03981b	0.00803187
33	0xbdf7fe9c	-0.1210911
34	0xbd9aa8f2	-0.07551755
35	0x3c2e50a0	0.01063934
36	0xbe200e08	-0.15630352
37	0xbdfcf12f	-0.123506896
38	0x3dd2fad1	0.10301746
39	0xbe872538	-0.26395583
40	0xbe018b79	-0.12650861
41	0x3db826e9	0.089917965
42	0x3e67dd42	0.22642997
43	0xbd5c3604	-0.05376245
44	0xbe138594	-0.14406425
45	0x3e137bd5	0.14402707
46	0x3de393fa	0.11112209
47	0x3c9e1467	0.019296838
48	0x3e068869	0.13137974
49	0x3aac4dae	0.0013145709
50	0x3c16c91d	0.009203223
51	0x3db2ff40	0.08740091
52	0xbcd1e2ab	-0.025620779
53	0x3c5c4110	0.0134432465
54	0xbdc81073	-0.097687624
55	0xbccf4d68	-0.025305465
56	0x3b7427e9	0.0037255234
57	0xbd521300	-0.05128765
58	0xbdceeb9c	-0.10103533
59	0xb904af17	-0.00012653727
60	0x3ddc34b4	0.1075224
61	0xbb2a8c3c	-0.0026023528
62	0x3dcc7696	0.09983556
63	0x389161b0	6.9323345e-05
64	0x3d496c03	0.049175274
65	0x3dc73604	0.097270995
66	0xbe2e947d	-0.17048831
67	0xbe31bb15	-0.17356522
68	0xbdc11e13	-0.09429564
69	0xbd0d34a1	-0.03447402
70	0xbdd063fa	-0.10175319
71	0x3e53d787	0.20687686
72	0xbd948744	-0.07252362
73	0x38960d1b	7.1549985e-05
74	0x3dbb3063	0.091400884
75	0x3b1163fb	0.0022184837
76	0x3d9878b4	0.07444897
77	0x3cc57003	0.024101263
78	0xbe0180f4	-0.12646848
79	0xbe38d907	-0.1805154
80	0xbd876869	-0.066117115
81	0x3d89d420	0.06729913
82	0x3cbeb616	0.023280185
83	0xbccec0ec	-0.025238477
84	0x3cff13d3	0.031137383
85	0xbdc7c73d	-0.097547986
86	0xbd3c05c1	-0.045903925
87	0xbab8a5f8	-0.0014087548
88	0xbb84d06a	-0.004053165
89	0xbc744261	-0.014908404
90	0x3c5f6734	0.013635445
91	0x3dca2a61	0.098713644
92	0xbde7a640	-0.113110065
93	0x3baca581	0.005268753
94	0x3da232a7	0.079198174
95	0x3dcb6296	0.09930913
96	0xbde7d224	-0.11319378
97	0x3de7a01a	0.11309834
98	0xbddbe129	-0.10736305
99	0xbd84aecd	-0.06478653
100	0x3e13934a	0.14411655
101	0xbe20822f	-0.15674661
102	0xbd90c229	-0.07068283
103	0xbde6dd1c	-0.11272642
104	0xbd9d8197	-0.07690733
105	0x3decbf78	0.11559957
106	0x3ad82df5	0.0016493188
107	0xbda5c992	-0.08095087
108	0x3de67d77	0.11254399
109	0x3d301fb6	0.042998992
110	0x3c2eee95	0.010677
111	0xbcd9f724	-0.026607104
112	0x3cd55038	0.026039228
113	0x3e112fc2	0.14178374
114	0xbb887f48	-0.0041655637
115	0x3e013ae0	0.12620115
116	0xbe092fd2	-0.13397148
117	0xbdcf4970	-0.10121429
118	0x3df3a488	0.11896616
119	0xbe2b42ee	-0.1672475
120	0x3dd8b5cf	0.10581552
121	0xbe110cef	-0.1416509
122	0xbe7ded43	-0.2479754
123	0xbc4e6ff7	-0.012599937
124	0xbbb15b40	-0.005412489
125	0xba39d8e1	-0.00070895074
126	0x3d9f28b5	0.07771436
127	0x3cb6f797	0.022334857
128	0x3b87000d	0.004119879
129	0xbc4193f3	-0.011815059
130	0x38d96e19	0.000103678736
131	0x3daed1fb	0.08536144
132	0x3d4fac5a	0.050701477
133	0xbd8319a7	-0.06401377
134	0xbe81c562	-0.25345904
135	0xbcdec527	-0.027193619
136	0xbcc8edd7	-0.024527473
137	0x3e472555	0.19447835
138	0x3dc2a26d	0.095036365
139	0x3d996469	0.07489855
140	0x3d7c4168	0.061585814
141	0x3db4540c	0.08805093
142	0x3e87abf5	0.2649838
143	0xbd12b52c	-0.03581731
144	0xbe1922b6	-0.14954647
145	0xbe02c5a9	-0.12770714
146	0x3dc1b096	0.09457509
147	0x39ab0bf2	0.00032624562
148	0x3e0758d4	0.13217479
149	0xbaf7cf34	-0.0018906356
150	0x3d8bd143	0.06827023
151	0x3dd2538b	0.10269841
152	0xbd3f5745	-0.046714086
153	0x3ce5701d	0.028007561
154	0xbde3424a	-0.11096628
155	0x3dbd43f7	0.09241479
156	0x3ba04bb8	0.004891839
157	0xbd523879	-0.051323388
158	0xbdd9399e	-0.10606693
159	0xb915a81c	-0.00014272373
160	0x3e02d8f4	0.12778074
161	0x3bc5b69c	0.0060337316
162	0xbdb6db9b	-0.08928605
163	0x3634fd7c	2.6969637e-06
164	0x3d6162e2	0.055025943
165	0x3e09f2a4	0.13471466
166	0x3e26849b	0.16261522
167	0x3dcd9e76	0.1003999
168	0xbdc4c06d	-0.09607015
169	0xbd5e233a	-0.054232813
170	0xbdda1148	-0.106478274
171	0xbda59422	-0.08084895
172	0xbdbcf0d7	-0.09225624
173	0x390e2602	0.00013556334
174	0x3de9951d	0.11405394
175	0x3b18c5cd	0.0023311258
176	0x3e07582c	0.13217229
177	0xbc865b66	-0.016401004
178	0xbe1de72c	-0.15420216
179	0xbdd84488	-0.10559946
180	0xbd24185c	-0.040062293
181	0x3dc6562d	0.096844055
182	0x3e19bcc5	0.15013416
183	0xbd23b6b6	-0.03996917
184	0x3c93c238	0.018036947
185	0xbdc87abf	-0.09789037
186	0xbcd4bb3c	-0.025968187
187	0xbb72382d	-0.0036959753
188	0x3dd54123	0.104128145
189	0xbc7fef79	-0.01562106
190	0x3c5268af	0.012842341
191	0x3dcf55d0	0.10123789
192	0xbe19a206	-0.15003213
193	0x3bea2c07	0.0071463617
194	0x3dd3ef2a	0.10348351
195	0x3dfc1bb8	0.123099744
196	0xbe02ad1b	-0.12761347
197	0x3e08f27b	0.13373749
198	0xbe040228	-0.12891448
199	0xbd6c4c87	-0.05769017
200	0x3e2d5b7c	0.1692943
201	0xbe06e00a	-0.13171402
202	0x3e038dc1	0.12847044
203	0xbdbef460	-0.093239546
204	0xbdbb6e22	-0.091518655
205	0x3db7116d	0.089388706
206	0x3ac34834	0.0014898838
207	0xbe13766b	-0.14400642
208	0x3dc73d87	0.09728532
209	0x3b0ae8b3	0.0021195828
210	0x3c3652c5	0.011128132
211	0xbce8d1f1	-0.02842042
212	0x3c9f74f9	0.019464957
213	0x3e2d4499	0.16920699
214	0xbc270325	-0.010193621
215	0x3dc6ffd6	0.097167656
216	0xbdd9a73a	-0.10627599
217	0xbdd92912	-0.10603537
218	0x3ddbbf74	0.10729876
219	0xbe0838a9	-0.13302864
220	0x3dc4be8e	0.09606658
221	0xbd77fa30	-0.06054133
222	0x3e0315a6	0.12801227
223	0xbc79a8e1	-0.015238018
224	0xba6c822e	-0.0009022084
225	0xba9bae52	-0.0011877513
226	0x3dfba4b6	0.122872755
227	0x3db1b9ca	0.086780146
228	0x3b3e709a	0.0029058815
229	0x3c99a1da	0.018753935
230	0x38463096	4.7252128e-05
231	0xbdd70b9d	-0.10500262
232	0xbcd8344f	-0.02639213
233	0xbe00a43a	-0.12562647
234	0x3e47c673	0.19509296
235	0xbc414645	-0.011796539
236	0xbb7d9e8a	-0.0038699233
237	0xbd4d47a1	-0.05011714
238	0x3df17142	0.1178918
239	0x3dfc6904	0.12324718
240	0xbe31517d	-0.17316242
241	0x3de48b5f	0.111593954
242	0x3e4a208f	0.19738983
243	0xbcdbec2a	-0.02684601
244	0xbe4c5cb7	-0.19957243
245	0x3df009ec	0.117206424
246	0x3dd54965	0.104143895
247	0x3ceb867c	0.02875065
248	0x3de6c9f0	0.11268985
249	0xb9d78901	-0.00041110071
250	0xbdbe9e29	-0.093075104
251	0x3df866e4	0.12129
252	0xbd641d88	-0.055692226
253	0x3d06dfcb	0.03292827
254	0xbdce7076	-0.10080044
255	0xbbbd4ef1	-0.005777233
