data/Results/kinships_sequential-processing/corrupt copy/distmult_5.model (torch, 54120 bytes, 1 tensors)

entity_representations.0._embeddings.weight f4 [104, 100]
0	0x3cfcf3bd	0.030877942
1	0xbe14b02e	-0.14520332
2	0x3dceaa96	0.100911304
3	0xbdfd7ca4	-0.12377289
4	0x3a2d08e3	0.00066007505
5	0x3dfa420f	0.12219631
6	0x38baf588	8.914905e-05
7	0xbd956e5a	-0.072964385
8	0x3e0627f6	0.13101181
9	0x3d7a1d6e	0.061063223
10	0x3a36a951	0.0006967979
11	0xbbf31c71	-0.007419162
12	0x380c5cfc	3.34652e-05
13	0x3dd5630e	0.10419284
14	0x395d3478	0.00021095749
15	0x3c1cf837	0.009580663
16	0xbdd9dbe2	-0.106376424
17	0x3c1b9efb	0.009498353
18	0x3db9f63a	0.09080167
19	0xbe016b44	-0.12638575
20	0x3dc2a5be	0.09504269
21	0xbe5a6516	-0.21327624
22	0x3dfef507	0.12449079
23	0xb8f558eb	-0.00011699073
24	0xbd15775b	-0.03649078
25	0xbccc6efd	-0.024955267
26	0x3dfdcdc6	0.12392764
27	0x3e60e93e	0.21963975
28	0x397b4a30	0.00023964862
29	0x3d1ec479	0.03876159
30	0xbb82a34c	-0.0039867517
31	0xbe65c52f	-0.22438501
32	0x3c587523	0.013211521
33	0x3da97941	0.082750805
34	0xbe15f8de	-0.14645717
35	0x3d8145b7	0.06312125
36	0xbde90ce2	-0.1137941
37	0x3c6a3770	0.014295444
38	0x3db8267f	0.089917175
39	0xbdded515	-0.10880486
40	0xbe797184	-0.24359709
41	0x3d637aee	0.055537157
42	0xb78b3550	-1.6594917e-05
43	0x3c34ffad	0.011047286
44	0x3dd2e293	0.10297122
45	0x3e30846f	0.1723802
46	0x3da3fa75	0.08006755
47	0x3ce6ecf1	0.028189154
48	0x3dc3ac89	0.09554393
49	0x3e725e57	0.236688
50	0x3dbfdf6d	0.09368787
51	0x3c04e0f8	0.008110277
52	0xbcda6d8d	-0.026663566
53	0x3e1f0f1d	0.15533109
54	0xbbeb7239	-0.0071852473
55	0x3c7d18a6	0.015447771
56	0x39a60831	0.0003166809
57	0x3a4f9fde	0.00079202454
58	0xbb226c5f	-0.0024783832
59	0xb7013ea2	-7.703582e-06
60	0x3c00dba1	0.007864864
61	0x3cdeed38	0.027212724
62	0x3e306d62	0.17229226
63	0xb81ffc4f	-3.8143535e-05
64	0xbceb77ce	-0.02874365
65	0x3ad1e735	0.001601434
66	0xbe0b9e62	-0.13634637
67	0xbdc09c8e	-0.094048604
68	0xbd9bf386	-0.07614808
69	0xbc6ae494	-0.014336724
70	0xbd782a99	-0.0605875
71	0xbe1196b5	-0.14217646
72	0xbd823069	-0.0635689
73	0x373d40cb	1.1280364e-05
74	0xbd97f58d	-0.07419882
75	0x38646fb4	5.4463468e-05
76	0xbe72e54e	-0.23720285
77	0x3e0bdfb4	0.13659555
78	0xbdf94605	-0.12171558
79	0x3d6fa599	0.058507536
80	0xbdc19586	-0.094523475
81	0x3bbc0279	0.0057375995
82	0x3e7c656e	0.24648067
83	0xba94ba4b	-0.0011347024
84	0x3dba9254	0.09109941
85	0xbdac9df2	-0.08428563
86	0x3e0365c2	0.12831786
87	0xb82ceccf	-4.122854e-05
88	0xbbb4f62e	-0.005522511
89	0xbb56e91a	-0.0032792748
90	0x3a829806	0.0009963519
91	0x3e0c3c7f	0.13694952
92	0xbb99aed2	-0.0046900297
93	0x3aa7f66f	0.0012814532
94	0x3d86eefb	0.06588551
95	0xbe1d2a62	-0.15348199
96	0xbe73838c	-0.2378065
97	0x3adaa047	0.0016679846
98	0xbd9f5298	-0.077794254
99	0xbc81292e	-0.015766706
100	0xbbe8b5ec	-0.007101765
101	0xbe4cc884	-0.19998366
102	0x3e1125f2	0.14174631
103	0xbde0c9a6	-0.109759614
104	0xbb14d733	-0.0022711277
105	0x3dcc535e	0.099768385
106	0x38bd63e8	9.030831e-05
107	0xbc487d7d	-0.01223695
108	0x3e05f2a9	0.13080849
109	0x3de749cd	0.11293373
110	0x3acaf44e	0.0015484185
111	0xbc37845d	-0.011200991
112	0x381ba4ac	3.7108242e-05
113	0x3e4bc38c	0.19898814
114	0xba452bf1	-0.00075215014
115	0x3caacf65	0.020850847
116	0xbdd2112b	-0.10257181
117	0xbcc738b3	-0.024319028
118	0x3e029206	0.12751016
119	0xbdc85f45	-0.09783796
120	0x3dabd72f	0.083906524
121	0xbdd5fc09	-0.104484625
122	0x3de30b9d	0.110861994
123	0xb9604daa	-0.00021391237
124	0xbe767bca	-0.2407066
125	0xbd24f69a	-0.04027424
126	0xbdb2f180	-0.08737469
127	0x3daa3523	0.08310916
128	0x3996a96f	0.00028736467
129	0xbcd1a4d6	-0.025591295
130	0x3ceaeb13	0.028676545
131	0xbdb787ce	-0.089614496
132	0x3b5c5f4f	0.0033626144
133	0x3d833265	0.06406096
134	0xbe1d4e2f	-0.15361856
135	0x3df3d675	0.11906139
136	0xbe3ca6c3	-0.1842299
137	0x3e22df8c	0.15905589
138	0x3e2e01d2	0.16992882
139	0x3e36abfe	0.17839047
140	0xbdb1382c	-0.08653292
141	0x3dcf2ca2	0.10115935
142	0xb7dcd18a	-2.6323618e-05
143	0xbcc14b4f	-0.02359548
144	0x3e1a047e	0.15040776
145	0xbe19aef4	-0.15008146
146	0x3d847917	0.064684086
147	0xbbfc12f8	-0.007692691
148	0x3e0d47f9	0.13796987
149	0xbe5b7f2a	-0.21435228
150	0x3e261f1d	0.16222806
151	0x3c894c5b	0.016760042
152	0xbd663154	-0.056199387
153	0xbd848210	-0.0647012
154	0xbbee4632	-0.0072715515
155	0x3c9456fb	0.018107882
156	0x39e6e051	0.00044036147
157	0x3ab1f32b	0.0013576498
158	0xb8444a20	-4.6799076e-05
159	0xb7051d98	-7.934308e-06
160	0x3bfa1f86	0.0076331524
161	0x3d93341e	0.07187675
162	0xbe321e36	-0.17394337
163	0xb8a8cf6c	-8.0494996e-05
164	0x3d934b56	0.071921036
165	0x3b3fd51e	0.0029271315
166	0x3c8a91ba	0.016915191
167	0x3d66933a	0.05629275
168	0xbe1a50fd	-0.15069957
169	0x3d9fc318	0.07800883
170	0xbdfe9034	-0.12429848
171	0xbe640d4b	-0.22270696
172	0xbe065807	-0.13119517
173	0x37b061dc	2.1026404e-05
174	0xbd8b48f5	-0.06801025
175	0x385665c0	5.1116338e-05
176	0x3e00f013	0.12591581
177	0xbc20637c	-0.009789344
178	0xbe382691	-0.17983462
179	0x3df3520c	0.118808836
180	0xbe247041	-0.16058446
181	0x3bc051ba	0.0058691176
182	0x3dea4906	0.11439709
183	0xb74d1cf0	-1.222569e-05
184	0x3ddda608	0.108226836
185	0xbe302782	-0.17202571
186	0x3e037eee	0.12841389
187	0xb8d18593	-9.990777e-05
188	0xbc82ac02	-0.01595116
189	0xbb9e31b9	-0.0048277047
190	0x3aa13e31	0.001230186
191	0x3e3aab43	0.18229394
192	0xbb974a6f	-0.0046170275
193	0x3ae10758	0.0017168326
194	0x3d812e60	0.063076735
195	0xbd977314	-0.07394996
196	0xbcc58057	-0.024109049
197	0x3b0476ca	0.0020212405
198	0xbd900b48	-0.07033402
199	0xbcd143b0	-0.025544971
200	0x3d4157ac	0.04720275
201	0xbe14c062	-0.14526513
202	0x3de9a925	0.11409215
203	0xbe0625b5	-0.13100322
204	0x39cacfbb	0.00038683214
205	0x3de0f322	0.10983874
206	0x38e4d15d	0.00010910884
207	0xbdf3968b	-0.11893948
208	0x3e4e5993	0.20151357
209	0x3e2870ec	0.16449326
210	0x3aab007c	0.0013046409
211	0xbc06e05f	-0.008232205
212	0x383e437c	4.536238e-05
213	0x3e475c2c	0.19468755
214	0x3a831eb8	0.0010003662
215	0x3cb1d061	0.021705808
216	0xbdfa8616	-0.12232606
217	0x3c9be480	0.019029856
218	0x3dbadf89	0.09124667
219	0xbdf0689b	-0.11738702
220	0x3ddbb1ff	0.107273094
221	0xbcd4bb59	-0.02596824
222	0x3e1108be	0.14163491
223	0xb94be656	-0.00019445395
224	0x3dcdf45b	0.10056373
225	0xbd744480	-0.05963564
226	0x3d82b276	0.06381695
227	0xbb9e3c63	-0.004828976
228	0x39adb7a1	0.00033133946
229	0xbd76461c	-0.060125455
230	0xbc2405d1	-0.010011152
231	0xbe33d12e	-0.17560264
232	0xba973c70	-0.0011538398
233	0x3dd16141	0.10223628
234	0x3ddbf9e5	0.10741023
235	0xbe323f89	-0.17407049
236	0xbd04957c	-0.032369122
237	0x3c883d4e	0.016630795
238	0x3e0b9303	0.136303
239	0xbd8f819c	-0.07007143
240	0xbe1fb3c9	-0.15595926
241	0x3dac36c0	0.0840888
242	0x37dbf627	2.6221458e-05
243	0xbd8ec5f4	-0.0697135
244	0x3df63794	0.120223194
245	0x3de346ae	0.110974655
246	0x3dca3630	0.09873617
247	0x3db9cea7	0.09072619
248	0x3dc1a89c	0.09455988
249	0xbe0e8b3b	-0.139203
250	0x3d401afe	0.04690074
251	0x3c69a067	0.014259434
252	0xbd45eba8	-0.048320442
253	0x3df8d260	0.12149501
254	0xbc458951	-0.012056665
255	0xbbdb8d08	-0.006700162
