data/Results/kinships/corrupt/distmult_20.model (torch, 54128 bytes, 1 tensors)

entity_representations.0._embeddings.weight f4 [104, 100]
00000000: 04d6 6b3e 972d 55be 57b9 013e e615 abbd
00000010: 759c 3037 aa82 f03b bc1c 7837 e4ea 74bd
00000020: cd13 cb3d 084b 563a 0754 fb37 a437 6dba
00000030: c71c 7737 bf2a 3a3d e73b faba f17f 823c
00000040: e53b d5bd 9855 26b8 0de1 b13d a69c d3bd
00000050: 8493 f23d f507 84be 2e24 cc3d b732 c3b6
00000060: 4a4f 183a a509 423b bd1c bd3d f679 543e
00000070: 6663 1338 68ce a5bc 284f 7b3d d17f 5dbe
00000080: 718e 643c 79ce d63d ccb1 d7bd 7eaa 93b9
00000090: 06b8 9ebe 4b56 453e 1f3a 3d3c 37cf 77bd
000000a0: da62 1cbd 57dd 003a a02c 913d 7024 0fbe
000000b0: 374c b73d f9dd 303e 9e58 c03d c142 713d
000000c0: daec aa3d fd4b 443a ae01 ad3d 443a 213a
000000d0: 4f91 48bb 45f1 223e f95a 9fb9 eef3 a53d
000000e0: 0dea 8438 11be 5738 5123 96b8 efee 12b6
000000f0: 04e2 5239 8d1a 9cba 18ed fc3d 407a 3039
00000100: edbd b03c 9d92 4c37 bb90 033e f005 eabd
00000110: 9fc5 52bc d51e 51be 7ec8 5abd 7a00 24be
00000120: 7c2c 3cb9 be0b d534 a94a a2bd 4b5b 8037
00000130: 0003 873e 4e87 e73c 71d2 10be 4a7a b03d
00000140: 0eb2 d1bd 8aba 7d3b c90c b2bd 58c1 41b9
00000150: d2a1 9fbd 6ade 94bd 300f 893d 74ec c4b5
00000160: e5d0 913d a889 21bc 118f a439 4c33 1b3e
00000170: cee0 cabb cd51 cc39 6746 263a 1f85 78be
00000180: 41b6 12be d033 113a 5978 9ebb 0018 b4bb
00000190: d8fe 13be db7a 58be 54ea 0d3e bb20 d8bd
000001a0: 5321 68ba 7fea 303c 333f af37 b3b4 dc3c
000001b0: 1993 f33d 7665 c13c 493e 0539 dec6 aaba
000001c0: a4bd f637 c0c3 e43d 4720 a6ba 46ad 7e3d
000001d0: 8080 02be 3d6d e939 9203 3abb 8be7 e8bd
000001e0: 927a 193e 8b7e 50be f041 073e bda2 d7b7
000001f0: f02d 0f3b 986c f9bb f16d 183e 1336 8a3d
00000200: 9c46 9438 b421 9f3d 1cd2 0e3e 99c3 8b3e
00000210: 8a3d 0f3d 319b 0c3e 582d 00be f9a1 2f3b
00000220: 14ec 30be 94e7 0d3e 912f e33c 4c25 593e
00000230: 5420 cabd ada1 013b aeee c53d ea49 bd3d
00000240: f334 cc3d 1c3e 04be 8b3c da3d 18c3 68bc
00000250: 018d c03d 0aba 10bb df79 443e 80ee 693b
00000260: b204 75bc ad29 943c 5ec8 19ba 4b58 913d
00000270: ab2d cd38 e081 8139 f4cc 633d ea3c 51b6
00000280: b43e 8439 2192 973b ad27 0cbd bfcd d339
00000290: fbfa fa3c 7bb5 b038 eaf6 5d3e 2077 2f3e
000002a0: eba6 11bd 4a7d 80be 6bbe debd e51d 10be
000002b0: c3af 84ba 328a b736 7e49 c6bd 90eb 9237
000002c0: 8ba9 f5bd abe8 3c3b 94d7 26be 2fcf 173e
000002d0: 1208 16be 6a25 f73b bfbb e0bd 2932 7a36
000002e0: f508 d0bd b941 433d 4738 0e3e 0933 12b8
000002f0: a37f 053e 3363 7bbc f733 bd39 e3be 233e
00000300: 2178 0dbc 9a43 713a e3be 933a 6eec 10be
00000310: 73fd c1bd dec8 2a3a d74b 2abc f009 f9bb
00000320: 34b0 a03e 9abf 29be 435d 093e a017 c9bd
00000330: d9cd ae39 2f89 1b3c eaf3 c137 7c88 35be
00000340: 05c7 fe3d 3dfc da3c 9edf ae38 0e8b aeba
00000350: f15e f737 3bd0 173e d4f6 133b 8ab6 893d
00000360: 1239 f2bd 8336 0fb9 b85c e13d 6d66 d7bd
00000370: 8754 143e f59e 85bd 5ac2 073e c206 9bb7
00000380: 19b0 91ba e6ea 0fbc 9b20 083e 5955 66bd
00000390: ad8b 8838 2bcc 38be b8e7 013e fe07 2a3d
000003a0: 5483 b23c dbe3 003e ab49 f3bd c67a 46bb
000003b0: 3e6f 01be 5d48 63bd 2931 ee3c 3f55 e2bd
000003c0: 1a62 afbd 3611 cb3a 0bfd d03d 1772 fbbd
000003d0: c212 d83d 9f21 d93d 7889 e23d 019d 5d3d
000003e0: bc42 d43d 433c dfba f29c 44be 29aa 3f3b
000003f0: ec25 6fbc 2820 c83d 0858 43ba e893 173d
0.23030859 -0.20818172 0.12668358 -0.08353786 1.05268455e-05 0.007339795 1.4788642e-05 -0.05979432
0.09915886 0.00081746327 2.996066e-05 -0.00090491236 1.47290475e-05 0.045450922 -0.0019091339 0.015930148
-0.104118146 -3.96572e-05 0.08685503 -0.10332613 0.118445426 -0.2578732 0.09967838 -5.817357e-06
0.0005810155 0.00296078 0.09233997 0.2074965 3.5140103e-05 -0.020240024 0.061354786 -0.2163079
0.013949976 0.104886 -0.10531959 -0.00028165051 -0.30999774 0.192712 0.011549502 -0.06050035
-0.03818021 0.00049157947 0.0708859 -0.13978744 0.08950084 0.17272176 0.093919024 0.058901552
0.08345957 0.000748813 0.08447586 0.0006150345 -0.0030604189 0.1591235 -0.00030394623 0.081031665
6.337846e-05 5.1437008e-05 -7.1591356e-05 -2.1894773e-06 0.00020111358 -0.0011909768 0.123499095 0.0001683021
0.021574939 1.2193484e-05 0.12848179 -0.11426914 -0.012864499 -0.20421918 -0.05341386 -0.16015807
-0.00017945649 3.9682885e-07 -0.079243965 1.53013e-05 0.26369476 0.02826276 -0.14142777 0.08617075
-0.10239039 0.0038715922 -0.08693845 -0.0001847794 -0.07794537 -0.072689846 0.0669235 -1.4671955e-06
0.071199216 -0.00985948 0.0003138711 0.15156287 -0.0061913496 0.00038970858 0.0006342888 -0.24269532
-0.14327337 0.00055390317 -0.004836124 -0.005496025 -0.14452684 -0.21140616 0.1385892 -0.10553118
-0.00088550634 0.010798096 2.0891055e-05 0.026941633 0.11893291 0.02360795 0.00012707071 -0.0013029238
2.9413794e-05 0.11170149 -0.0012674414 0.062176965 -0.12744331 0.00044522612 -0.0028383476 -0.11372288
0.14988163 -0.20360772 0.13208747 -2.5705778e-05 0.002184745 -0.0076118223 0.1488569 0.06748595
7.070342e-05 0.077701 0.13947338 0.27297667 0.034970798 0.13731076 -0.12517297 0.0026799424
-0.17277557 0.13857871 0.027732642 0.21205634 -0.09869447 0.0019780204 0.09664665 0.092426136
0.09971037 -0.12914318 0.10656079 -0.01420667 0.09401894 -0.0022083544 0.19187115 0.0035695136
-0.014954733 0.018086279 -0.0005866344 0.07096919 9.783668e-05 0.00024701562 0.05561538 -3.1178884e-06
0.0002522372 0.004625574 -0.034217525 0.0004039835 0.030637255 8.426137e-05 0.21676221 0.17135286
-0.035559576 -0.25095588 -0.10876163 -0.14073904 -0.0010123182 5.469913e-06 -0.09681986 1.7514249e-05
-0.119952284 0.0028825204 -0.16293174 0.14825128 -0.14651516 0.007542302 -0.1097331 3.72821e-06
-0.101579584 0.0476701 0.13888656 -3.4856643e-05 0.13036971 -0.015343475 0.00036087606 0.15990786
-0.008634598 0.0009203494 0.0011272099 -0.14152691 -0.0947217 0.0006514917 -0.010394058 -0.0076000616
0.31384432 -0.16576996 0.13414483 -0.09818959 0.00033341235 0.009493156 2.3120974e-05 -0.17727846
0.12440304 0.026731605 8.3386185e-05 -0.0013316588 2.9488905e-05 0.14825527 0.002257754 0.0672427
-0.118272915 -0.0001365785 0.11004013 -0.10517583 0.1448537 -0.06524459 0.13257733 -1.8480587e-05
-0.0011115103 -0.0087840315 0.13293688 -0.056233738 6.511002e-05 -0.18046634 0.1268605 0.04151153
0.021791138 0.1258692 -0.118792854 -0.003028558 -0.12640092 -0.055488933 0.029076176 -0.11051416
-0.08563633 0.00154928 0.10204514 -0.1227762 0.10550453 0.10602116 0.11061376 0.05410481
0.10364291 -0.0017031509 -0.19200495 0.002924571 -0.014596444 0.09771758 -0.00074517773 0.03700629
