data/Results/kinships/corrupt/distmult_100.model (torch, 54136 bytes, 1 tensors)

entity_representations.0._embeddings.weight f4 [104, 100]
00000000: a574 d93b 23d6 edbd ce64 083e 8b60 e1bd
00000010: d581 2539 9f29 a73c 6134 5038 b3ac dd3a
00000020: e1fc e43d 4c5c 4e3d 0023 7939 d0fa 04bc
00000030: 5856 7138 e48e a23d 1688 9336 ccf9 d03c
00000040: 9e2d c5bd ad9f 4f3e d99b bb3d a72a d5bd
00000050: dc59 c13d 4320 46be 5baa 963d edcd 85b8
00000060: db92 0e3a 1122 69b6 1608 d73d d856 513b
00000070: 7597 4e39 8ebf 6b3e 8c4b 1238 e7f6 46be
00000080: b577 5f3b 9e4a 72be 774a ffbd bcae 32b8
00000090: 189e 7bbd 407e ad3e c44b fa3c d317 05be
000000a0: 1d0a 33be 006f 6d3c 5043 e73a 67d3 21be
000000b0: e9b8 cabd ee28 ad3d c3a1 a13d 1075 853a
000000c0: 2576 193e 4e78 1439 fc80 b03c 68ec 613d
000000d0: 901c 89bd a1b8 133e 2778 a3bb ea56 a23d
000000e0: 2e2e 9d39 d176 dc39 99a1 01bd edfe a3b6
000000f0: 0d25 c53b 2853 86bc 42ab 8d3d ca80 8037
00000100: 0e7f 573e 80e1 dc39 b9e8 62be d3bc ebbd
00000110: 93be 98bd 6f3b 0abd aa73 78bd 881a 3bbe
00000120: 72a6 c2bb 76e1 8436 e591 d0bd 218d 1338
00000130: 1c53 db3d bd7c af39 5cc3 08be 63cc 95bb
00000140: 2e24 53be e2e1 533c f791 143e 2620 79b8
00000150: 28a6 b0bd 027e 5ebd b86f db3d 6506 d0b7
00000160: 6d11 1e3e 013d 86bc 3d5a b93a a51d 1d3e
00000170: 3cc0 d4bc aaa0 953a cb83 db3c b101 11be
00000180: c683 a0bd 7ac7 723b 9040 c2bd 1d9e adbc
00000190: 8fe5 de3b 4d9a 21be 4555 133e 5d3d e6bd
000001a0: b687 bdba aa0b c33c 93ad 8038 8b51 343c
000001b0: 9464 ed3d 6e23 dd3d 8aeb d439 d0b5 3fbc
000001c0: b38e b438 aa8a 0d3e dae1 d136 eeee 1c3d
000001d0: b525 dabd d7b3 f53d feed 1c3b a3a6 e6bd
000001e0: ed78 d33d 4212 eebd 5fa7 d93d 8382 f3b8
000001f0: df18 a03a 9df4 d739 36ea ee3d 1b7f a9bc
00000200: 210a 9b39 7196 1d3e dd07 d139 4281 263e
00000210: bf25 0f3c efeb 1cbd ded2 3ebe 6e42 2b3a
00000220: 8742 52be c8a6 493c 35e7 4c3d 8b0f 0d3e
00000230: 6e84 12bc 0e0a d63c 9dfd 2e3b 1156 9a3d
00000240: cc54 03be cbc5 a9bd e183 d23d 3e5f bbba
00000250: 33e4 2f3e d1cd 73b9 42ff c73d 1033 a83d
00000260: 05a2 d0bd a436 40bc 5979 febb 8edb 953d
00000270: 8e4f b839 b516 3a3a d646 10bc 659d e9b6
00000280: 402f f63b a15e 763d 8646 d33d c2e6 c137
00000290: ee34 8e3e d70c 3b3a 05d9 06be 2a45 e33d
000002a0: 953e e2bd 1f3f 79bd 34d2 c8bd 526e fabe
000002b0: 2622 19bc bbd5 0f37 db9a d9bd 1570 2838
000002c0: d6b1 99bd 80ea 3939 28b4 05be 2936 b33b
000002d0: a9f6 efbd 5cf9 8b3c 6d12 94bd c7e9 4bb8
000002e0: 8257 f7bd 49d7 babd 1f92 023e 6c5f 6fb8
000002f0: 247b 0e3e 658f c6bc dceb c23a 2e04 253e
00000300: 65ed 11bd 301e e23a 2100 1d3d 0320 30bd
00000310: d670 debd fcc6 873b 9c1d edbd 5e04 eebc
00000320: 16d5 613a e0cc 063e e806 203e 7a81 d9bd
00000330: bdb9 3dba 0f65 ae3c 067b 9b38 e6d6 d2bc
00000340: 84df ee3d 41f1 273e 3e94 c739 f45b 55bc
00000350: e4ce c438 60b9 3a3e 9aa5 4cb4 7005 063d
00000360: 682a aabd 6e8d 643d 4cc1 913d c97e c2bd
00000370: d768 0f3e 28a9 ecbd 108a 263e b2da 0db9
00000380: b318 50ba b13e b7ba ba3e f43d edab 08bd
00000390: c94f 9b39 a316 e7bd ea18 ddb9 d946 debd
000003a0: 5e11 a93b 5a71 cabd 3cd4 633e c971 a7ba
000003b0: d3ae 3a3e 9916 d03d 276b 423d 6486 7bbc
000003c0: f308 0ebe ba9f b93c 9489 e73a dad7 b0bd
000003d0: 2325 16be afe5 f03d c7b1 e73d 8f28 8cbc
000003e0: cf6a 413e a310 95ba db29 01be 7390 bb3d
000003f0: a6df f4bd 7d9d 053e 45d3 e3bb 1a37 d83b
0.0066362196 -0.11613109 0.13319704 -0.11004742 0.00015783992 0.020405589 4.9639846e-05 0.001691243
0.11181045 0.05038099 0.00023759529 -0.008116439 5.753929e-05 0.079374105 4.396784e-06 0.025509737
-0.096278414 0.20275755 0.09160585 -0.10408526 0.094409674 -0.19348244 0.073567115 -6.380291e-05
0.0005438753 -3.4739535e-06 0.10499589 0.0031942632 0.00019702113 0.23022291 3.487947e-05 -0.19430123
0.003409845 -0.23661277 -0.12465375 -4.260124e-05 -0.061430067 0.33885384 0.030553706 -0.1299737
-0.17484327 0.0144917965 0.0017643962 -0.158033 -0.0989855 0.08455072 0.07892182 0.0010181982
0.14986475 0.00014159197 0.02154588 0.055157095 -0.06694901 0.14425899 -0.0049886885 0.07926734
0.0002997978 0.00042050195 -0.031648252 -4.887456e-06 0.0060163797 -0.016397074 0.069174305 1.5318761e-05
0.21044561 0.0004212968 -0.22159089 -0.11510625 -0.07458224 -0.033748087 -0.06065718 -0.1827184
-0.005940252 3.9601537e-06 -0.10184077 3.5178968e-05 0.10709211 0.00033471538 -0.13355774 -0.004571484
-0.2061927 0.012932273 0.14508806 -5.9396167e-05 -0.08625442 -0.05431939 0.10714668 -2.479851e-05
0.15436335 -0.01638651 0.0014141273 0.1534334 -0.02597057 0.001141568 0.026796242 -0.14160801
-0.07837634 0.0037045167 -0.094849706 -0.021193558 0.006802268 -0.15781517 0.14387996 -0.11242173
-0.0014460001 0.023809273 6.135846e-05 0.0110057695 0.115914494 0.10797773 0.0004061128 -0.011701062
8.609649e-05 0.13822427 6.254978e-06 0.0383138 -0.10651723 0.11997192 0.0023945565 -0.11262252
0.10325799 -0.11624576 0.10627627 -0.00011611453 0.0012214443 0.00041190247 0.11665766 -0.020690491
0.0002957145 0.1538942 0.00039869445 0.16260245 0.008737027 -0.03831094 -0.18635127 0.0006533031
-0.2053319 0.01230783 0.050025184 0.1377546 -0.0089427065 0.026127841 0.0026701458 0.07535947
-0.12825316 -0.08289679 0.1027906 -0.0014295352 0.17176895 -0.00023250958 0.097654834 0.082128644
-0.10187153 -0.011731777 -0.0077659306 0.07317267 0.00035154488 0.00070987205 -0.008805951 -6.9622643e-06
0.007512957 0.06014884 0.10316186 2.3114848e-05 0.27774757 0.0007135397 -0.13168724 0.110971764
-0.11047093 -0.060851213 -0.09805718 -0.48912293 -0.0093465205 8.573227e-06 -0.106252395 4.0158706e-05
-0.07504623 0.00017730333 -0.13057005 0.005469103 -0.117169686 0.017086677 -0.07230077 -4.8616694e-05
-0.12077238 -0.09123094 0.12751053 -5.707091e-05 0.13914162 -0.024238298 0.0014871317 0.16114876
-0.035626788 0.0017251428 0.0383302 -0.04299928 -0.108613655 0.004143594 -0.11577913 -0.029054817
0.0008614821 0.13164091 0.15627635 -0.10620399 -0.0007237455 0.021288423 7.413891e-05 -0.025737237
0.11663726 0.16400625 0.00038066687 -0.013022412 9.384545e-05 0.18234777 -1.9059226e-07 0.03272003
-0.083088696 0.05579894 0.071169466 -0.094968386 0.14004837 -0.115557015 0.16263604 -0.00013528278
-0.0007938251 -0.0013980475 0.11926027 -0.033367086 0.00029623348 -0.112836145 -0.00042170967 -0.10853357
0.005159541 -0.09884901 0.2224893 -0.0012775 0.18230753 0.1016056 0.04746547 -0.015351865
-0.13870601 0.022659171 0.0017664903 -0.086349204 -0.14662604 0.11762559 0.11313205 -0.017109184
0.188884 -0.0011372756 -0.12613623 0.09158411 -0.1195672 0.13048358 -0.0069526755 0.0065983655
