data/Results/kinships/corrupt/distmult_2.model (torch, 54120 bytes, 1 tensors)

entity_representations.0._embeddings.weight f4 [104, 100]
00000000: d0de d23d a4e7 15be 2a38 d23d 7b16 e1bd
00000010: 2c07 fcba 21be e73d eb2e e238 df69 bb3d
00000020: edf6 9f3d 0d64 343e 4b40 ce39 dd3b 15bc
00000030: f100 a439 3755 e13d 742f c0b9 ea16 c63d
00000040: 161c 94bd 29fe ff3d c3e7 ce3d 9b4d 41be
00000050: 685b 1dbd 7572 04bd 8ed6 b63d 8b6c feba
00000060: 04d6 54be 1707 3ebb 5e96 cb3d b4f5 1e3e
00000070: a8f1 993b 37c6 973c 20c0 9d3d b1a2 10be
00000080: f29b 89bb 3fff a3bd da6c 5e3c beae 293e
00000090: 5ce2 32be f1c2 093e 9273 e43d 23b4 21be
000000a0: 3625 45be 85aa de3d ab99 0836 3c04 3cbd
000000b0: eb22 b33c 803f a23e bd18 c73d 09ac f13d
000000c0: 9557 dd3d a44f 1e39 fbd1 cd3d c735 4c3d
000000d0: b4e2 08bd ba9b 3b3e e7fc c3bc 61fe c33d
000000e0: 4432 123b e36d 953a bbfe f0bd e272 bbb7
000000f0: 4c09 d33a 7252 253e ef73 e03d 2ca0 9d39
00000100: 6940 483c c876 a73a 29ac 38bd 2718 e4bc
00000110: e829 eebd 24fa 5b3e 90f2 a9bd cefe 60bb
00000120: e777 d1bd 9ca1 0838 0025 f4bc 7067 9a39
00000130: 61ea e33d 6d87 eebb 1256 b1bd 90f4 523d
00000140: 1b71 3bbe 15e2 7e3d 0799 3e3e 2666 0fbb
00000150: c242 debd e8b9 cabd eede c83d f689 b0ba
00000160: 0d91 d93d a828 56bc d1ed be3a 5cd6 0e3e
00000170: c3a0 a0bd 137a 423d c4e9 043b b073 b53d
00000180: 1f71 62bd 9b8b d93b 8a04 adbd 2703 8ebd
00000190: 72d0 013e 548d 13be f6e6 d83d 8068 f0bd
000001a0: 2ccd 883a af3a fb3d 521d 2c39 ef0c 9bbd
000001b0: 16a2 a53d b042 59be d84a 213a 61ab 3ebc
000001c0: a5ae 0a3a d2ad f83d d99a 9e39 c10e e83d
000001d0: 252f 87bd 7454 f83d c7e7 f43d 395e 1bbe
000001e0: a78e 4fbe 1989 c6bd 33cb bf3d 25d3 43bb
000001f0: 0c35 2abe 4828 463c 9761 de3d 0fb8 12bc
00000200: 99df f03b 1f0d e83c 121d 4d3d 2412 873e
00000210: 348b 233c 11ce ccbd 9d4d 97be 2f0d 4c3e
00000220: 2eac a0bd 8df9 84bd 2dcf e33d 2370 213d
00000230: 6ee5 f1bd 4f67 dd3d 3932 3238 57a1 393d
00000240: 2f4d d6bb d59b 17bd 81c4 c03d c481 99bd
00000250: c11a 093e 4167 ab39 e523 ab3d 2d35 7a3d
00000260: d753 31bd 5086 263e 4929 07bd 2877 073e
00000270: 80c8 353b 9e41 ca3a 7df3 f8bd 9fff f8b7
00000280: 0068 fc3a f151 113e 039a cc3d b9ca 3238
00000290: 355e aabd 5ea0 e83a 4ee7 ffbc 9beb 0c3e
000002a0: 84ca dcbd 9019 5a3e d694 94bd 1e0b b0bc
000002b0: 7524 f1bd ad0e 9a38 55c0 dabd 9d18 b039
000002c0: c5bd 633d dafa fc3b 2b12 b1bd 303c d5bd
000002d0: e08f a7bd db6c a03d 781f 3b3e c080 f83a
000002e0: c3c4 debd d4f9 b8bd 27b3 35bd fb4d 31bb
000002f0: 4ed4 0c3e 82b1 72bc 4438 cc3a d63d 0b3e
00000300: 6ef4 b0bd c7c9 893d 7df9 6b3b 0914 ca3d
00000310: caaf 82bd 3463 df3b 4e31 b1bd 0098 c1bd
00000320: 765c 463e ccce 25be fd47 da3d 075b 0cbe
00000330: 09ab 75b8 b909 103e 01d6 3e39 09ff 9f3d
00000340: 4d58 d53d cc79 07be bb35 193a 0ccf 3abc
00000350: b837 073a c235 173e ffe7 e0b9 297f 1a3e
00000360: ab02 b3bd bc4d fb3d 63ca 103e 194c 0a3e
00000370: bcdd 073e b0c0 133d de5f e53d b8d2 55bb
00000380: a866 e8bd a8f1 c13b fd42 1b3e 3020 ae3d
00000390: e90c da3b 07b4 3cbd 30e8 fe3c c900 7fbb
000003a0: 0914 093c 0cd4 c2bd df9a 833e 431f a4bc
000003b0: a28b c53d f7ee ee3d d6fa 0b3e 23cc f9bd
000003c0: 73cb 22be deff 003e c3ea bbb8 7fe6 bdbc
000003d0: a9df fb3d 2357 133d 691b f83d 3721 433d
000003e0: f933 0b3e ec90 6537 b337 7dbd 0337 7e3d
000003f0: 4339 41bd c976 dc3d 5467 2ebd 3b6c a7ba
0.10296404 -0.14639145 0.10264619 -0.10990616 -0.0019228212 0.11315561 0.00010785259 0.09151053
0.07810769 0.17616291 0.00039339284 -0.009108511 0.0003128122 0.110025816 -0.0003665645 0.09672339
-0.072319195 0.12499649 0.10102799 -0.1887726 -0.03841725 -0.032335717 0.08927642 -0.001941101
-0.20784765 -0.0028995925 0.0994079 0.15523416 0.004697997 0.018527133 0.077026606 -0.14124562
-0.0041994983 -0.08007669 0.013575757 0.16570565 -0.17469162 0.1345327 0.11154856 -0.15791373
-0.19252476 0.10872368 2.0355026e-06 -0.045902476 0.021867236 0.31689072 0.09721515 0.11800391
0.108077206 0.00015097723 0.10049816 0.049855974 -0.033419326 0.18321124 -0.023924304 0.09570003
0.0022307793 0.0011400547 -0.11767336 -2.2345634e-05 0.0016100793 0.16144732 0.109596126 0.0003006471
0.012222388 0.0012776488 -0.04508606 -0.027843548 -0.11629087 0.2148214 -0.08298218 -0.0034331563
-0.10227948 3.2575437e-05 -0.0298028 0.00029450236 0.111286886 -0.0072793276 -0.08658995 0.051502764
-0.18304865 0.062227327 0.18613063 -0.0021880954 -0.10852577 -0.0989874 0.098081455 -0.001346885
0.10623369 -0.013071217 0.0014566724 0.13948959 -0.07843163 0.0474797 0.0020280937 0.08859956
-0.055283662 0.0066389567 -0.084481314 -0.06934195 0.12677172 -0.14409381 0.10590927 -0.11738682
0.0010437123 0.122670524 0.00016414121 -0.07570826 0.08087556 -0.21216846 0.0006152815 -0.01163754
0.0005290306 0.121425286 0.0003025148 0.11330939 -0.06600789 0.12125483 0.119582705 -0.15172662
-0.20269261 -0.09694118 0.09364929 -0.002988049 -0.16621798 0.012094565 0.108584575 -0.008955016
0.0073508737 0.02832657 0.05007655 0.26381028 0.009981919 -0.100002415 -0.29551402 0.19926904
-0.07845341 -0.064929105 0.111235 0.039413583 -0.11811338 0.1081072 4.248528e-05 0.04531988
-0.0065399627 -0.037013847 0.0941248 -0.07495454 0.13389112 0.00032692592 0.08356456 0.06108587
-0.043292847 0.16262174 -0.032998357 0.13229048 0.0027737916 0.0015430932 -0.12155817 -2.9682937e-05
0.0019257069 0.14191414 0.09990313 4.2627307e-05 -0.0831875 0.0017747988 -0.031238224 0.13761751
-0.10780814 0.21298814 -0.07254951 -0.021489676 -0.11774532 7.346026e-05 -0.10681216 0.00033587674
0.0556009 0.0077203335 -0.086460434 -0.104118705 -0.08181739 0.078332625 0.18273723 0.0018959269
-0.10877373 -0.09032026 -0.044360306 -0.0027054537 0.13752863 -0.014812829 0.0015580733 0.13597807
-0.08640371 0.06727939 0.003600686 0.09867103 -0.06381185 0.006817246 -0.08651982 -0.0945282
0.19371209 -0.16192168 0.10658262 -0.13706599 -5.857184e-05 0.14066209 0.00018199535 0.07812316
0.10417233 -0.13230056 0.0005844493 -0.011401903 0.0005158144 0.147666 -0.0004289746 0.1508757
-0.08740743 0.12270686 0.14139704 0.13505591 0.13268179 0.036072433 0.11199926 -0.003262682
-0.11347705 0.0059187002 0.15162273 0.08502233 0.006654371 -0.046070125 0.031116575 -0.003891038
0.008366593 -0.09513101 0.25704095 -0.020034438 0.096457735 0.11666673 0.13669905 -0.12197139
-0.15897922 0.12597606 -8.9605826e-05 -0.023181198 0.12298519 0.035971772 0.12114603 0.047639098
0.13594045 1.3683206e-05 -0.061820697 0.062064182 -0.04717375 0.10764844 -0.04257901 -0.0012773344
