data/Results/kinships_sequential-processing/corrupt copy 2/distmult_50.model (torch, 54128 bytes, 1 tensors)

entity_representations.0._embeddings.weight f4 [104, 100]
0	0x3e1bbac2	0.15207961
1	0xbe534569	-0.20631947
2	0x3df48d9e	0.11941074
3	0xbde4a998	-0.1116516
4	0x3af7e62b	0.00189132
5	0x3a3dd54f	0.0007241563
6	0x378231bb	1.5520365e-05
7	0xbbcae138	-0.006191399
8	0x3e02107c	0.12701601
9	0x3c20f396	0.0098237
10	0x3882966e	6.226903e-05
11	0xbb0ce424	-0.0021498287
12	0x378e2a92	1.6947542e-05
13	0x3d0dd752	0.034629174
14	0xb8631b81	-5.4146632e-05
15	0x3df9f558	0.12204999
16	0xbdd32412	-0.10309614
17	0x3da6c2a5	0.08142594
18	0x3de00ed9	0.10940332
19	0xbdf36589	-0.11884601
20	0x3df71887	0.12065225
21	0xbe2c6d38	-0.16838539
22	0x3dd1f78d	0.10252295
23	0xb7110969	-8.6448645e-06
24	0xb96d2fbc	-0.00022619864
25	0x3ad96745	0.0016586563
26	0x3e057e59	0.13036479
27	0x3e14d861	0.14535667
28	0x37ebe3f8	2.812034e-05
29	0xbc9575d3	-0.01824466
30	0x3e37a994	0.17935783
31	0xbe45d3bf	-0.19319056
32	0x3bc8ffd3	0.0061340122
33	0x3def86ca	0.11695631
34	0xbdd59ec5	-0.104306735
35	0xb9f77124	-0.00047195808
36	0xbe66f047	-0.22552596
37	0x3e1537f4	0.14572126
38	0x3caafbbe	0.020871993
39	0xbe09bec9	-0.13451685
40	0xbd9d7d73	-0.07689943
41	0x3aeea864	0.0018208143
42	0x3d8667d2	0.06562771
43	0xbe4de6c7	-0.20107566
44	0x3dede128	0.11615211
45	0x3db2ffa6	0.08740167
46	0x3d5b15ec	0.053487703
47	0x3d2e7e3b	0.04260085
48	0x3d45fa89	0.048334632
49	0x38f58aff	0.000117084004
50	0x3da720b0	0.081605315
51	0x3a9924e5	0.0011683969
52	0xbbd1c64f	-0.006401814
53	0x3e1e162b	0.15438144
54	0xba41faad	-0.00073997193
55	0x3ea241a2	0.316907
56	0x391497bb	0.00014170904
57	0x383cb842	4.4994296e-05
58	0xbb50dbf7	-0.003186939
59	0xb619dc1f	-2.2926904e-06
60	0x39d253ca	0.0004011675
61	0xba574544	-0.00082119205
62	0x3d8c0e7a	0.06838699
63	0x39551577	0.00020321259
64	0x3d6cdeb3	0.05782957
65	0x38f5c176	0.00011718545
66	0x3df1f406	0.11814122
67	0xbe0c5383	-0.13703732
68	0xbc33fc5f	-0.010985463
69	0xbe717101	-0.23578264
70	0xbd1d8590	-0.038457453
71	0xbcd4c118	-0.02597098
72	0xb9e9d025	-0.00044596303
73	0x35252960	6.15275e-07
74	0xbdaa5eb5	-0.08318845
75	0x37520975	1.2519177e-05
76	0x3e42b982	0.19016078
77	0x3aa93683	0.0012909923
78	0xbe01117c	-0.12604326
79	0x3d5c2345	0.053744573
80	0xbe3f3163	-0.18671183
81	0x3a155a20	0.00056973286
82	0x3e0a117e	0.13483235
83	0xb800b154	-3.0682728e-05
84	0xbdf2da5c	-0.11858055
85	0xbdbe3ae5	-0.09288577
86	0x3ddb6f57	0.10714596
87	0xb630b3cf	-2.6330706e-06
88	0x3dd9b637	0.10630458
89	0xbc2898db	-0.01029035
90	0x39f8f398	0.00047483738
91	0x3e4cd463	0.20002894
92	0xbc4674c4	-0.0121128
93	0x391e0324	0.00015069224
94	0x3af9b4ca	0.0019051072
95	0xbe505bd2	-0.20347527
96	0xbd8d78ee	-0.06907831
97	0x3a3e91a8	0.0007269629
98	0xbb87e924	-0.0041476656
99	0xbbaebe79	-0.0053327647
100	0x3de682c4	0.1125541
101	0xbe47c27f	-0.19507788
102	0x3de30fe2	0.11087014
103	0xbdf46212	-0.11932768
104	0xbb0ece5b	-0.0021790478
105	0x3a4fdfbc	0.00079297624
106	0x378fd35c	1.714535e-05
107	0xba5dd8fe	-0.00084628153
108	0x3e065c2d	0.131211
109	0x3d0df7b2	0.03466005
110	0x39240129	0.00015640691
111	0xbb2ae173	-0.002607432
112	0x37ceb301	2.4640469e-05
113	0x3daf3feb	0.08557113
114	0xb7110371	-8.643475e-06
115	0x3e0b6c91	0.13615634
116	0xbde31647	-0.110882334
117	0x3dda7775	0.10667316
118	0x3d0dbfb7	0.03460666
119	0xbdfc9be8	-0.12334424
120	0x3e00acaf	0.12565874
121	0xbdff8ece	-0.1247841
122	0x3dede52b	0.11615976
123	0xb7ee9a27	-2.8443594e-05
124	0xba598360	-0.00082974695
125	0xbb5aa5f4	-0.0033363076
126	0x3e25566e	0.16146252
127	0x3d1d0fbc	0.038345084
128	0x383984e8	4.4231216e-05
129	0x3e31cf23	0.17364173
130	0x3e465d0e	0.19371435
131	0xbc8865aa	-0.01665004
132	0x3c874f81	0.016517403
133	0x3e03c505	0.12868126
134	0xbe599d2e	-0.21251366
135	0x3b1c9183	0.0023890443
136	0xbe099700	-0.13436508
137	0x3d2f2b5d	0.042765964
138	0x3cef316a	0.029198367
139	0x3e881875	0.2658116
140	0xbdc451f4	-0.09585944
141	0x3b778cbe	0.0037773098
142	0x3d5120c2	0.05105663
143	0x3e3033ca	0.17207256
144	0x3ddf9d50	0.10918677
145	0x3dc33f2e	0.09533535
146	0x3d600af9	0.054697964
147	0xbe39f90f	-0.18161415
148	0x3d3cd8e5	0.046105284
149	0xba09313c	-0.0005233472
150	0x3e1186bd	0.14211555
151	0x3b2a42c0	0.0025979728
152	0xbc5a101d	-0.013309506
153	0xbc41e997	-0.011835477
154	0xbaa45c94	-0.0012539797
155	0x3e8ac32f	0.27102038
156	0x39363c51	0.00017379342
157	0x38fdaa51	0.00012095704
158	0x39a3c7d8	0.00031238678
159	0xb61bd80d	-2.3222558e-06
160	0x39ef8a1a	0.00045688526
161	0x3c374203	0.011185172
162	0x3dc1adb7	0.094569616
163	0x39a84bec	0.00032100023
164	0x3d82ab5b	0.0638034
165	0x399c8a96	0.00029857893
166	0x3e2c0e54	0.16802341
167	0x3e929d59	0.28635672
168	0xbc931210	-0.017952949
169	0xbe1ef888	-0.15524495
170	0xbd5f8568	-0.054570585
171	0xbdceb90a	-0.10093887
172	0xba90a100	-0.001103431
173	0x3664b56c	3.408025e-06
174	0xbdb7f129	-0.089815445
175	0x374eacd2	1.2318795e-05
176	0xbe332b54	-0.17496997
177	0xba1af124	-0.00059105665
178	0xbe128214	-0.14307433
179	0xbd6363e8	-0.0555152
180	0xbce56506	-0.028002273
181	0x3a56cd4e	0.0008194045
182	0x3dc3c5f6	0.095592424
183	0xb82ac06a	-4.0710358e-05
184	0xbe1e1d7c	-0.15440935
185	0xbd36173c	-0.04445575
186	0x3e191c0f	0.1495211
187	0xb7a1ad8e	-1.9273513e-05
188	0x3e23e119	0.16003837
189	0xbc55c63a	-0.013047749
190	0x3a016f7e	0.0004937573
191	0x3e3fa7a1	0.18716289
192	0xbc71e80a	-0.014764795
193	0x3985ddde	0.0002553304
194	0x3b3f0624	0.0029147947
195	0x3bfc65ef	0.007702581
196	0xbdb2dd58	-0.08733624
197	0x3a459da3	0.00075384433
198	0xbbd62854	-0.006535569
199	0xbbe04007	-0.00684357
200	0x3ed1a10c	0.40943182
201	0xbdb2e629	-0.08735306
202	0x3e077f31	0.13232113
203	0xbddfd032	-0.10928382
204	0xbb816de2	-0.0039498666
205	0x3a4445bf	0.00074871996
206	0x3793a08d	1.7598528e-05
207	0xbc372d74	-0.01118027
208	0x3e0ca846	0.13736066
209	0x3d4cac70	0.049969137
210	0x39001b84	0.00012217282
211	0xbb3d02aa	-0.00288407
212	0x37b488a4	2.15213e-05
213	0x3dd5f285	0.104466476
214	0x379acea3	1.8454453e-05
215	0x3e0a1494	0.13484412
216	0xbdd46be1	-0.10372139
217	0x3df0a91f	0.11751007
218	0x3dcf1619	0.10111637
219	0xbddfdb19	-0.109304614
220	0x3df892c4	0.12137368
221	0xbd8104c1	-0.06299735
222	0x3dcf9102	0.1013508
223	0xb7c22f70	-2.3148692e-05
224	0xb9ef28e2	-0.00045616092
225	0xbb432dbb	-0.0029781896
226	0x3e14aabc	0.14518255
227	0xbdfaa58e	-0.12238608
228	0x38203a43	3.8201233e-05
229	0xbe712f8b	-0.23553292
230	0x3e480e10	0.19536614
231	0xbe06aab8	-0.13151062
232	0x3c717c91	0.014739172
233	0x3dd4b042	0.10385181
234	0x3e1a71a7	0.15082417
235	0xbb2c13ff	-0.0026257036
236	0xbd7af480	-0.06126833
237	0xbd55ef5a	-0.052230217
238	0x3d16e93a	0.036843516
239	0xbdb33fc1	-0.087523945
240	0xbdf83f2e	-0.121214256
241	0x3b720036	0.0036926395
242	0x3d21dbc7	0.039516237
243	0xbdfa9299	-0.122349925
244	0x3e0ba73e	0.13638017
245	0x3dbcc553	0.09217324
246	0x3d88182a	0.06645234
247	0x3d3fd26f	0.046831544
248	0x3d6f9245	0.058489103
249	0xbaeecf32	-0.0018219708
250	0xbe36ac1e	-0.17839095
251	0x3b384fb2	0.0028123674
252	0xbc83a898	-0.016071603
253	0x3decc34d	0.11560688
254	0xbaa556cb	-0.0012614367
255	0x3e1572bb	0.14594547
